sithcon-paper-code/SITHCon_morseadding_run_0.pt (torch, 138510 bytes, 25 tensors)

transform_linears.0.weight f4 [25, 25]
0	0xbd94cefc	-0.07266042
1	0xbdb2e0bf	-0.08734273
2	0x3e6cc8e1	0.23123504
3	0x3d77f886	0.060539745
4	0xbd7a208c	-0.061066195
5	0x3c2bb2a6	0.010479605
6	0x3d3b3df1	0.04571337
7	0x3d372706	0.04471495
8	0x3b3aa19d	0.0028477677
9	0x3e58b755	0.21163686
10	0x3c94d45b	0.018167665
11	0xbe672bb0	-0.22575259
12	0xbc857a0e	-0.016293552
13	0x3d474695	0.048651297
14	0xbd68e004	-0.056854263
15	0x3d34cb78	0.044139355
16	0x3d99a7f6	0.07502739
17	0xbe3a338b	-0.18183725
18	0x3c3fce64	0.011706922
19	0x3c9b4bfa	0.018957127
20	0xbe47fb88	-0.19529545
21	0xbcc7ac20	-0.024374068
22	0xbe1dfa4e	-0.15427515
23	0xbbf4bfa0	-0.0074691325
24	0x3db7a39f	0.08966755
25	0x3e7571e1	0.23969223
26	0x3edb1c01	0.42794803
27	0x3db306e4	0.08741549
28	0xba668e25	-0.0008794985
29	0xbe0aeb9b	-0.13566439
30	0xbe000b9e	-0.12504432
31	0xbe337553	-0.17525224
32	0x3defabc3	0.11702683
33	0xbeda8437	-0.42678997
34	0x3e0b6115	0.13611253
35	0x3d6dfe83	0.05810405
36	0xbe1cf69f	-0.15328453
37	0xbec3e12c	-0.3825773
38	0xbc95f57b	-0.01830553
39	0x3da80b1f	0.08205246
40	0xbe30bc05	-0.17259224
41	0xbd053344	-0.032519594
42	0xbcc964a1	-0.024584116
43	0x3d017644	0.031606928
44	0x3cd6a8d0	0.026203543
45	0xbeaed473	-0.3414646
46	0xbdcb7b53	-0.099356316
47	0xbdf09eb4	-0.1174902
48	0xbdb639f6	-0.08897774
49	0xbd603270	-0.0547356
50	0xbe37f27f	-0.17963599
51	0xbe745da4	-0.23863846
52	0x3cd0095d	0.02539509
53	0xbe56c415	-0.20973237
54	0x3e38e35f	0.18055485
55	0xbda675bf	-0.08127927
56	0x3e8a8c92	0.27060372
57	0xbda6c62a	-0.081432655
58	0xbdda4949	-0.10658509
59	0xbd9c8815	-0.07643143
60	0xbe91a5b3	-0.2844673
61	0x3e7df819	0.24801673
62	0xbd29226b	-0.04129259
63	0xbdfb7393	-0.122779034
64	0xbe0f4fe9	-0.13995327
65	0x3e5b0e49	0.21392168
66	0x3dc8d591	0.098063596
67	0xbc454a12	-0.0120415855
68	0xbe4050a2	-0.18780759
69	0xbe17cbe7	-0.14823876
70	0xbdd7cec2	-0.10537483
71	0x3e2255a3	0.1585298
72	0xbe152682	-0.14565471
73	0xbdf10be5	-0.11769847
74	0xbe40cf09	-0.18828978
75	0x3e164cc0	0.14677715
76	0xbd22636b	-0.039645594
77	0xbea44599	-0.3208435
78	0xbd2b0f21	-0.041762475
79	0xbd3b8313	-0.0457793
80	0x3e7e1259	0.24811687
81	0xbb7cb0c1	-0.0038557502
82	0xbdfe6698	-0.12421912
83	0x3d5988f8	0.05310914
84	0xbda5593c	-0.08073661
85	0x3cb81a36	0.022473436
86	0xbda4f0da	-0.08053751
87	0x3de011ba	0.10940881
88	0xbcd84d57	-0.026404066
89	0x3e4aaf33	0.19793396
90	0x3deddba9	0.116141625
91	0x3d3fddf1	0.04684252
92	0xbd975537	-0.073893
93	0xbd262d2f	-0.040570434
94	0xbd9a7362	-0.07541539
95	0x3b8a6dd2	0.0042245174
96	0x3de2f3ed	0.110816814
97	0xbdeb183b	-0.11479231
98	0xbe08fb9f	-0.13377236
99	0x3db7152f	0.08939587
100	0x3cf63ead	0.030059183
101	0xbd2815bb	-0.04103635
102	0xbe1264bf	-0.14296244
103	0x3d7ca252	0.06167824
104	0xbe37c6a4	-0.17946869
105	0xbdcf3135	-0.10116807
106	0xbe838e0a	-0.25694305
107	0x3e01e685	0.12685592
108	0xbe3dfa46	-0.18552503
109	0xbe24f147	-0.16107665
110	0x3d00f487	0.0314832
111	0xbe12df55	-0.14343007
112	0xbeb5e2de	-0.35524648
113	0x3db0ba9c	0.08629343
114	0xbe770352	-0.2412236
115	0xbe8692d4	-0.26283896
116	0xbe33f0a9	-0.17572273
117	0x3e0fd939	0.14047708
118	0x3d54b30d	0.05192857
119	0x3da8ae0b	0.08236321
120	0x3d56095f	0.05225503
121	0xbe59f357	-0.21284233
122	0xbdbadab1	-0.09123743
123	0x3d8fec00	0.07027435
124	0xbcb79547	-0.022410048
125	0xbe9baf3b	-0.30407128
126	0xbd05e299	-0.032686803
127	0xbc8e78d4	-0.0173916
128	0x3dd858a8	0.10563785
129	0xbd90076e	-0.07032667
130	0x3b39865f	0.0028308851
131	0xbda856c3	-0.082196735
132	0xbeb2cda8	-0.34922528
133	0xbe366d9a	-0.17815247
134	0xbe28d54d	-0.16487618
135	0x3cb9deb0	0.022689193
136	0x3d86f4e5	0.06589679
137	0xbe8b54bb	-0.27213082
138	0xbf3988f0	-0.72474575
139	0x3e19b65f	0.15010975
140	0xbdf45993	-0.119311474
141	0x3df93a4e	0.12169324
142	0xbcf4dee1	-0.029891433
143	0x3df1d181	0.11807538
144	0xbd39bfcd	-0.04534893
145	0x3c92bdd1	0.017912777
146	0x3d346952	0.044045754
147	0x3e07e479	0.13270749
148	0xbf21e4a4	-0.632395
149	0x3e4abba3	0.1979814
150	0x3e3e7336	0.18598637
151	0x3eb38daf	0.35069034
152	0xbd940a2d	-0.072285034
153	0xbe9ca86a	-0.3059724
154	0xbe85afff	-0.26110837
155	0xbd2e0237	-0.04248258
156	0xbe1cf31b	-0.15327112
157	0xbd50620b	-0.05087475
158	0xbda81e59	-0.08208913
159	0x3d0f2f0b	0.034956973
160	0xbe559afe	-0.20859906
161	0xbe4807ea	-0.19534269
162	0xbd37f877	-0.04491469
163	0x3e6b47ae	0.22976562
164	0xbda98d31	-0.08278883
165	0xbde0b29b	-0.10971566
166	0xbe79caa7	-0.24393712
167	0xbd1f9674	-0.038961843
168	0xbe6800f0	-0.22656608
169	0xbe6be261	-0.23035575
170	0xbe542791	-0.20718218
171	0x3dabb9c6	0.08385043
172	0xbead7fa3	-0.33886442
173	0x3ec27e12	0.3798681
174	0xbe5c4a6a	-0.21512762
175	0xbe04b8f7	-0.12961183
176	0xbebeed27	-0.37290308
177	0xbdf738ee	-0.12071405
178	0xbb7310e2	-0.003708892
179	0xbe803ba1	-0.25045493
180	0x3c793216	0.015209695
181	0xbe5b0324	-0.21387917
182	0xbbc4ee62	-0.0060098628
183	0x3d3c8353	0.046023678
184	0xbd4990d6	-0.049210392
185	0xbd2d4b79	-0.042308304
186	0xbd9a30c6	-0.07528834
187	0x3e15661b	0.14589731
188	0xbd2a5db7	-0.04159328
189	0xbdc55a26	-0.09636335
190	0xbe18640d	-0.14881916
191	0xbec8489a	-0.3911789
192	0x3d98dc74	0.07463923
193	0x3d393262	0.045214064
194	0x3cd01584	0.025400884
195	0xbd1284f9	-0.035771344
196	0xbdcdbdd9	-0.10045976
197	0x3d45a482	0.04825259
198	0xbe7eca6a	-0.24881902
199	0x3d63386a	0.055473723
200	0xbddc95d8	-0.10770768
201	0xbdfb9174	-0.12283602
202	0x3d790752	0.060797997
203	0xbeea42c8	-0.45754075
204	0x3d9b93d1	0.07596553
205	0xbbb39636	-0.005480553
206	0x3e413ee2	0.18871644
207	0xbd917c17	-0.071037464
208	0xbdf52336	-0.119696066
209	0x3d32566e	0.043539457
210	0xbee8e927	-0.4549038
211	0xbb6de94f	-0.0036302393
212	0xbdf4e35f	-0.1195743
213	0x3e483253	0.19550447
214	0xbce803bb	-0.028322091
215	0x3e0c9641	0.13729192
216	0x3d8af8c3	0.06785729
217	0x3df66449	0.120308466
218	0xbe862127	-0.26197168
219	0xbe84a079	-0.2590368
220	0xbe5b2857	-0.21402107
221	0xbe8ebaf3	-0.27877006
222	0xbdbc05cc	-0.09180793
223	0x3e92d406	0.28677386
224	0xbf01a36e	-0.5064
225	0xbddebd83	-0.1087599
226	0x3d9a86b6	0.07545225
227	0x3d8b52f1	0.06802929
228	0x3d1edb08	0.038783103
229	0x3e3489a4	0.1763063
230	0x3e0ebb5e	0.13938662
231	0x3cb1d6ba	0.021708835
232	0x3d663987	0.056207206
233	0x3d50ccd0	0.050976574
234	0x3dfc24dd	0.123117186
235	0x3d0f1811	0.03493506
236	0xbe096936	-0.13419041
237	0x3e3c20d1	0.18371893
238	0x3c8563b3	0.016282892
239	0x3dea620b	0.114444815
240	0x3e0d269d	0.13784261
241	0x3d6fa9f1	0.058511678
242	0xbe35c14f	-0.17749523
243	0x3d326f7b	0.043563347
244	0x3b91b0ed	0.00444614
245	0xbe35f20c	-0.17768115
246	0x3da0317a	0.07821937
247	0xbbf42b70	-0.007451467
248	0x3c4ada09	0.012381085
249	0x3c151c1a	0.009100938
250	0xbd6a85c8	-0.05725649
251	0xbe0bbed3	-0.13647012
252	0xbdb009de	-0.08595632
253	0x3d13b00b	0.03605656
254	0xbeaf8ea6	-0.3428852
255	0x3d4603d9	0.048343513

transform_linears.0.bias f4 [25]
0	0xbd9ab777	-0.075545244
1	0xbeae6dc7	-0.34068128
2	0xbdd7d93d	-0.10539482
3	0x3deaad65	0.11458854
4	0x3e24b458	0.1608442
5	0x3d564667	0.052313235
6	0xbe871f83	-0.2639123
7	0xbe50a46e	-0.20375225
8	0xbe695311	-0.22785594
9	0xbdff2f63	-0.1246021
10	0xbe1a3fe3	-0.15063433
11	0xbd0dc2ba	-0.034609534
12	0xbe0c4d56	-0.13701376
13	0xbd23e732	-0.040015407
14	0x3e1f8203	0.1557694
15	0x3e8468da	0.25861245
16	0x3d4acd56	0.04951223
17	0xbe972e70	-0.29527617
18	0xbdb01771	-0.08598221
19	0xbcebb240	-0.02877152
20	0x3e901a28	0.28144956
21	0xbdc3ed95	-0.095667996
22	0xbd28e0d5	-0.04123004
23	0xbe81cee6	-0.25353163
24	0x3e15d3a4	0.14631516

transform_linears.1.weight f4 [25, 25]
0	0xbcc8c55e	-0.024508175
1	0x3d017540	0.03160596
2	0x3c6cebdc	0.01446053
3	0xbdb43197	-0.08798521
4	0x3dcedc9c	0.10100672
5	0x3df0a6f1	0.117505915
6	0xbcfbeb3b	-0.030751815
7	0xbea8395b	-0.3285626
8	0xbe7a9005	-0.24469002
9	0xbe3a32dc	-0.18183464
10	0xbe38b8ce	-0.18039247
11	0xbd7acf63	-0.061232936
12	0xbe057fe2	-0.13037065
13	0xbd488615	-0.048955996
14	0xbe78561a	-0.24251595
15	0xbdd874a5	-0.10569123
16	0xbd0fe17a	-0.03512714
17	0x3d2ce24f	0.042208012
18	0xbe88234e	-0.26589435
19	0x3e075b99	0.13218535
20	0x3de78839	0.11305279
21	0xbe24d314	-0.16096145
22	0x3e0cbb20	0.13743258
23	0xbe0be00e	-0.13659689
24	0x3d21c7b2	0.039497085
25	0xbcdb866b	-0.026797494
26	0xbd1f4c0d	-0.038890887
27	0xbe60acfe	-0.21940991
28	0xbe065824	-0.1311956
29	0xbe5880fc	-0.21142954
30	0xbdfd381b	-0.12364217
31	0xbe412dfe	-0.18865201
32	0xbe2488d7	-0.16067825
33	0xbe5dff89	-0.2167951
34	0x3e30fa12	0.17282894
35	0xbcc2a4b7	-0.023760183
36	0xbe7b8b34	-0.2456482
37	0xbd2b6745	-0.041846532
38	0x3d33a00d	0.04385381
39	0x3e36a79e	0.17837378
40	0x3c992406	0.018693935
41	0x3d13a3aa	0.036044754
42	0xbd84b013	-0.06478896
43	0xbde439c2	-0.11143829
44	0xbdf1cc7c	-0.118065804
45	0x3cd52c61	0.026022138
46	0xbe7a7425	-0.24458368
47	0xbe078799	-0.1323532
48	0xbe3be7ac	-0.18350095
49	0xbd90b02a	-0.07064851
50	0xbd9ef871	-0.0776223
51	0xbed71bd7	-0.42013428
52	0x3bd47d8d	0.0064846934
53	0xbdaab2ae	-0.08334862
54	0xbd3c99aa	-0.046044983
55	0xbd93f52d	-0.07224498
56	0x3da569c4	0.08076814
57	0xbcacf281	-0.021111729
58	0x3d3e8ab5	0.046519
59	0x3e8e0490	0.27737856
60	0xbd4d5223	-0.05012716
61	0x3df16281	0.11786366
62	0x3e034442	0.12819007
63	0xba96d033	-0.001150614
64	0xbe980084	-0.29687893
65	0x3dc5c54c	0.09656772
66	0xbc03b70c	-0.008039247
67	0xbe991946	-0.29902095
68	0xbd23f9ce	-0.040033154
69	0xbe445e30	-0.19176555
70	0xbe45c0ba	-0.193118
71	0x3bf88a06	0.007584813
72	0x3d501ee2	0.050810702
73	0x3cae07a0	0.02124387
74	0x3d8637a9	0.06553585
75	0x3cbbba3a	0.022915948
76	0x3e55c9d3	0.20877771
77	0x3e2fbaf2	0.17161158
78	0x3e0362ac	0.12830609
79	0xbd99d183	-0.07510664
80	0xbdc9537d	-0.09830377
81	0x3e3a9bc6	0.18223485
82	0xbdae8973	-0.0852231
83	0x3ded4f7e	0.115874276
84	0xbd85a129	-0.065248795
85	0x3da2cfeb	0.079498135
86	0x3cbf0c35	0.02332125
87	0xbd228c91	-0.039684836
88	0xbd702499	-0.058628652
89	0x3df58431	0.11988104
90	0xbda74f68	-0.081694424
91	0x3d4790b8	0.048722
92	0x3da6634b	0.081244074
93	0x3ea6846d	0.32522908
94	0xbd848f93	-0.06472697
95	0x3c952de1	0.018210353
96	0x3d54d32e	0.05195921
97	0xbdb73898	-0.08946341
98	0xbe39239d	-0.18079992
99	0xbdfc2d28	-0.123133
100	0xbc315d15	-0.010825415
101	0xbecebc2e	-0.40377945
102	0xbc273ac9	-0.010206887
103	0x3d18960a	0.037252463
104	0x3ce26d7b	0.027640095
105	0x3dd2073e	0.102552876
106	0xbd92f2d3	-0.07175221
107	0x3d9d266a	0.076733425
108	0xbd232e50	-0.03983909
109	0x3f0d2050	0.5512743
110	0x3ddda3b2	0.10822238
111	0x3d692c84	0.05692722
112	0x3e019fab	0.12658565
113	0x3bb47da7	0.005508143
114	0x3e2e09a2	0.16995862
115	0xbe38f830	-0.18063426
116	0xbdc6c888	-0.09706217
117	0xbd0d7248	-0.034532815
118	0x3c91de8c	0.017806314
119	0xbdfae19e	-0.12250064
120	0xbd2e13c0	-0.042499304
121	0x3e3bb5e5	0.18331106
122	0x3d746c4a	0.059673585
123	0x3e4f7087	0.2025777
124	0xbd83da2b	-0.064380966
125	0xbe5186f9	-0.20461644
126	0x3da409af	0.080096595
127	0x3e4a5faa	0.19763055
128	0xbcd7e7d2	-0.026355658
129	0xbc8a904d	-0.016914511
130	0xbde8cb3b	-0.11366888
131	0x3dbc746c	0.09201893
132	0x3e279ae3	0.16367678
133	0xbcbdeec6	-0.023185145
134	0xbe34f9e4	-0.1767345
135	0x3d9d8313	0.07691016
136	0x3deb3ba8	0.11485988
137	0xbe0a9504	-0.13533407
138	0xbe0c65f2	-0.13710764
139	0xbea8a7d9	-0.32940558
140	0x3db35fe8	0.08758527
141	0xbda5ca35	-0.080952086
142	0xbe508df2	-0.20366648
143	0x3c4779d2	0.01217504
144	0xbe39db3a	-0.18150035
145	0x3d8e1622	0.06937815
146	0xbdc816a7	-0.097699456
147	0x3e29fb30	0.16599727
148	0xbe47d255	-0.19513829
149	0xbd5f8732	-0.05457229
150	0x3d8014e6	0.06253986
151	0xbe579990	-0.21054673
152	0x3e1f3d11	0.15550639
153	0x3da1b06e	0.078949794
154	0x3d01d382	0.03169585
155	0x3d47de8e	0.04879623
156	0x3d181881	0.037132744
157	0x3da1bcc9	0.07897336
158	0xbd6eca72	-0.058298536
159	0x3e7f02f7	0.24903475
160	0xbda29232	-0.07938041
161	0xbde74679	-0.112927385
162	0x3d047b4c	0.032344148
163	0xbe14518d	-0.14484234
164	0x3c91fdef	0.01782128
165	0x3de78568	0.11304742
166	0x3d6a6e47	0.057234075
167	0x3d05e866	0.032692336
168	0xbdfa3b8f	-0.12218391
169	0xbea9c7e0	-0.33160305
170	0x3df336f0	0.11875713
171	0x3d0fe8b8	0.035134047
172	0x3dfb6994	0.12275997
173	0xbe7b0b29	-0.24515976
174	0xbeae6965	-0.34064785
175	0xbdddf0ec	-0.10836968
176	0xbeda3c66	-0.42624205
177	0xbd4dfebe	-0.05029177
178	0x3d0b9f0b	0.034087222
179	0xbd29310a	-0.041306533
180	0xbd91c26b	-0.071171604
181	0x3e1476cb	0.14498441
182	0xbda66a7c	-0.08125779
183	0xbd003a66	-0.031305693
184	0x3eb964d4	0.36209738
185	0xbc98ac34	-0.0186368
186	0x3d6baf44	0.057540193
187	0x3d8839cf	0.06651651
188	0x3d66ada6	0.056317948
189	0xbd17c71b	-0.037055116
190	0xbec49f23	-0.38402662
191	0x3ced0272	0.02893183
192	0x3e1b5324	0.15168434
193	0x3c5dfb4b	0.013548682
194	0xbe30f270	-0.17279983
195	0xbeb858ea	-0.36005336
196	0xbce736bb	-0.02822434
197	0xbe43f9d0	-0.19138265
198	0x3dbe195f	0.09282183
199	0xbe51aa3a	-0.20475093
200	0xbe4240c0	-0.18970013
201	0xbc17af99	-0.009258174
202	0x3e75ec1e	0.24015853
203	0x3e7dc471	0.24781968
204	0x3cd0824b	0.025452754
205	0x3e5e87c0	0.21731472
206	0xbd482b73	-0.04886956
207	0x3b7d60b8	0.0038662385
208	0xbd9192b8	-0.071080625
209	0x3d082bd8	0.033244938
210	0x3e95287e	0.29132456
211	0x3df90dba	0.12160821
212	0x3e0dc155	0.13843282
213	0xbeb7a4d7	-0.3586795
214	0x3d2994da	0.04140172
215	0xbdb163c2	-0.086616054
216	0x3da1dd89	0.079035826
217	0x3c819dc5	0.0158223
218	0x3d10a353	0.035312008
219	0xbe6544a8	-0.22389472
220	0xbd8325de	-0.06403707
221	0x3d06c620	0.03290379
222	0xbe40fed2	-0.18847206
223	0xbe53b818	-0.20675695
224	0xbe3c295f	-0.18375157
225	0xbd9a9eab	-0.07549795
226	0x3dc433c9	0.0958019
227	0xbd848035	-0.06469766
228	0xbcdc6b68	-0.026906684
229	0xbddb3f07	-0.10705381
230	0xbe7e5a98	-0.24839246
231	0x3dcac968	0.099016964
232	0x3d759ea6	0.059965752
233	0x3dd94a45	0.10609869
234	0x3de1ccb3	0.110253714
235	0xbe507823	-0.20358329
236	0x3e175655	0.14779027
237	0x3e990878	0.29889274
238	0xbc611f5c	-0.013740387
239	0x3e727b8a	0.23679939
240	0x3d06a0e4	0.03286828
241	0xbe1b3791	-0.15157916
242	0xbe55ff97	-0.20898281
243	0xbe033b52	-0.12815598
244	0x3dc6089d	0.096696116
245	0x3da8807c	0.082276314
246	0xbd6bac6a	-0.057537474
247	0xbc3cc885	-0.011522417
248	0x3e79ddcd	0.24401017
249	0xbe4ca153	-0.19983415
250	0x3d89fc49	0.06737573
251	0x3c9e9f9b	0.019363215
252	0xbe502489	-0.20326437
253	0x3d9996a8	0.074994385
254	0x3e656f26	0.22405681
255	0x3d2df936	0.042473994

transform_linears.1.bias f4 [25]
0	0x3e364e0f	0.17803214
1	0x3da54670	0.080700755
2	0xbe33c077	-0.17553888
3	0xbe13b7b1	-0.14425541
4	0xbe948854	-0.2901026
5	0xbe1ebca7	-0.15501653
6	0xbdc9b921	-0.09849764
7	0x3dffe9cf	0.12495767
8	0xbea15a7b	-0.31514344
9	0xbd0b414e	-0.033997826
10	0xbbe2b1fd	-0.0069181905
11	0x3c8f1422	0.017465655
12	0xbea7ed88	-0.3279841
13	0xbe857440	-0.26065254
14	0x3d509ce1	0.05093086
15	0xbded3075	-0.11581508
16	0x3e3b9c51	0.18321349
17	0xbeea6011	-0.45776418
18	0xbed7d60c	-0.42155492
19	0xbda0d8fc	-0.078538865
20	0xbb6529b3	-0.0034967482
21	0xbd90f92e	-0.07078777
22	0x3df8e839	0.12153668
23	0xbe55f78a	-0.2089521
24	0xbe4aadf6	-0.19792923

transform_linears.2.weight f4 [25, 25]
0	0x3dc759eb	0.09733947
1	0x3cd6c951	0.026219042
2	0x3e018300	0.12647629
3	0x3cf1e5ea	0.029528577
4	0x3dd78d0b	0.10524949
5	0x3db46525	0.08808354
6	0x3ecb60af	0.397222
7	0xbc098063	-0.008392426
8	0xbe730280	-0.23731422
9	0x3dff0551	0.12452186
10	0xbcc8b7f1	-0.024501773
11	0xbc0a693c	-0.008447941
12	0xbba08ce8	-0.00489961
13	0xbe0623e4	-0.13099629
14	0xbd5d8c00	-0.054088593
15	0xbabdf363	-0.001449209
16	0xbe931104	-0.2872392
17	0xbe8af9e7	-0.27143785
18	0xbeb72e04	-0.35777295
19	0x3d9f78b1	0.07786692
20	0x3dc7a08c	0.09747419
21	0x3c9ec0cc	0.019379042
22	0xbccdfe61	-0.025145711
23	0x3e3ebced	0.18626757
24	0xbe33adbd	-0.17546745
25	0xbe2be098	-0.16784894
26	0xbcae55ac	-0.021281086
27	0x3e575ec5	0.21032245
28	0x3ea7f183	0.32801446
29	0xbd522d8c	-0.051312968
30	0x3d59d46f	0.053181108
31	0xbc509e19	-0.012733006
32	0xbd42044c	-0.04736738
33	0x3a2b63de	0.00065380137
34	0x3e1c563e	0.15267274
35	0xbd78e6f8	-0.060767144
36	0x3e1092e8	0.1411854
37	0xbe7da2d2	-0.24769142
38	0xbe8fcaea	-0.280845
39	0x3e649680	0.22323036
40	0xbe1e2469	-0.15443577
41	0xbd0fee07	-0.03513911
42	0xbe9c8d82	-0.30576712
43	0xbedf9a16	-0.43672246
44	0xbcbbe007	-0.022933973
45	0x3e1aed0f	0.15129493
46	0x3dddaf86	0.10824494
47	0xbe0a8830	-0.13528514
48	0x3d4f5658	0.050619453
49	0xbe9565d5	-0.29179254
50	0x3c8bd422	0.017068926
51	0xbebcfd66	-0.36912078
52	0xbe53dded	-0.20690127
53	0xbd00043b	-0.031254034
54	0x3c6e13be	0.014531074
55	0x3e1b4974	0.15164739
56	0x3d8af09a	0.06784172
57	0x3e82a62e	0.2551741
58	0x3e340975	0.17581733
59	0x3e67e65c	0.22646469
60	0x3e5f2dda	0.21794835
61	0x3e88010b	0.26563296
62	0x3eac9ab5	0.33711782
63	0x3ed8b8c6	0.4232847
64	0xbe148260	-0.14502859
65	0x3d104b3c	0.035228
66	0x3bc0da46	0.005885395
67	0x3d169782	0.036765583
68	0x3e27a93e	0.16373155
69	0x3e1f26f6	0.15542206
70	0x3c39323d	0.011303482
71	0x3dfab025	0.12240628
72	0x3dd7751a	0.10520382
73	0x3cde6c80	0.027151346
74	0xbde7ef9b	-0.11324998
75	0x3e1e0045	0.1542979
76	0xbd4736d4	-0.048636273
77	0xbdfca693	-0.12336459
78	0x3da956bf	0.08268499
79	0xbdb2f65a	-0.08738394
80	0xbc86d790	-0.01646021
81	0xbd056761	-0.032569293
82	0x3ccbd831	0.024883362
83	0x3d7ea3e2	0.06216801
84	0xbf08cfe0	-0.5344219
85	0x3c7af3cf	0.015316918
86	0xbd3f628b	-0.046724837
87	0x3dc86f6a	0.097868755
88	0xbcfbcc49	-0.03073706
89	0x3ddff3be	0.10935162
90	0x3d9bbf7c	0.07604882
91	0x3c800be3	0.015630668
92	0x3de42d7c	0.11141488
93	0x3de0a189	0.109683104
94	0xbea6b15c	-0.3255719
95	0xbcf542fd	-0.029939169
96	0xbd339107	-0.04383948
97	0x3df00b1c	0.11720869
98	0xbd2a67d6	-0.041602932
99	0x3db4da9d	0.0883076
100	0xbe2c5fa1	-0.16833355
101	0x3d19f24a	0.03758458
102	0x3db9f7e9	0.09080488
103	0xbe4b1b71	-0.19834687
104	0x3e032ce7	0.12810098
105	0xbcb6c6b1	-0.02231154
106	0xbe76c88b	-0.24099939
107	0xbd998def	-0.07497775
108	0xbe697661	-0.22799064
109	0xbd5da5d6	-0.05411323
110	0x3de074eb	0.109598
111	0xbc630df2	-0.013858305
112	0xbe4dad86	-0.20085725
113	0xbdb53f01	-0.08849908
114	0x3d3a147c	0.04542969
115	0xbe332fb3	-0.17498665
116	0xbd01aded	-0.03166001
117	0x3db2240f	0.08698284
118	0xbd08c322	-0.03338922
119	0x3d9a317a	0.07528968
120	0xbde5df2f	-0.112242095
121	0xbc13a3cf	-0.009011223
122	0xbdca6439	-0.09882397
123	0xbe42412d	-0.18970175
124	0x3cfc68ec	0.03081175
125	0x3e38e5e5	0.18056448
126	0xbdbfe17c	-0.093691796
127	0xbe1f814a	-0.15576664
128	0x3e503c92	0.20335606
129	0x3da49054	0.08035341
130	0x3e06424c	0.13111228
131	0x3e0581ff	0.13037871
132	0x3d9c8b4d	0.07643757
133	0x3daf03a2	0.08545615
134	0xbeee1539	-0.46500567
135	0xbdd51ca8	-0.10405856
136	0x3e109562	0.14119485
137	0x3e37d6ae	0.17952988
138	0x3db88f54	0.09011713
139	0xbc9f7c80	-0.019468546
140	0xbc628bbc	-0.013827261
141	0x3d7fafa5	0.062423367
142	0x3db8f11b	0.09030362
143	0x3d493dbc	0.04913114
144	0x3c95a502	0.018267158
145	0xbda16a2c	-0.07881579
146	0x3dbfbde2	0.09362389
147	0xbe12f684	-0.14351851
148	0x3e0ff70e	0.14059088
149	0xbe8ad1b8	-0.27113128
150	0xbd87416b	-0.06604274
151	0xbd2d95e7	-0.042379286
152	0x3e2497ba	0.16073504
153	0x3e00403d	0.12524505
154	0x3e064c82	0.13115123
155	0xbcf58af9	-0.029973494
156	0x3d2c6709	0.04209045
157	0x3e677c6a	0.22606054
158	0xbe8bd947	-0.27314207
159	0x3e180d60	0.14848852
160	0xbd5b7054	-0.05357392
161	0x3c0b0090	0.008484021
162	0x3da91a34	0.08256951
163	0xbe2df791	-0.1698897
164	0x3c5edaa4	0.013601933
165	0x3dcf8844	0.101334125
166	0x3dae9dd3	0.08526196
167	0x3d439f60	0.047759414
168	0xbe630173	-0.22168522
169	0xbd406900	-0.046975136
170	0xbdfc5cc9	-0.12322385
171	0x3d47524c	0.04866247
172	0x3d00fac1	0.031489138
173	0xbd2f3d40	-0.042783022
174	0xbe957e78	-0.2919805
175	0x3e84e11b	0.25952992
176	0xbe317bbc	-0.17332357
177	0xbddd7fb8	-0.10815376
178	0x3d7a7e67	0.061155703
179	0x3c5e38e2	0.013563367
180	0xbc9cb2ef	-0.019128291
181	0x3cdf04df	0.027224002
182	0x3df32ccf	0.11873781
183	0x3cc93226	0.024560045
184	0x3dd43840	0.10362291
185	0xbecd46e8	-0.4009316
186	0xbc5e8ab3	-0.013582873
187	0x3d0bc2d1	0.03412134
188	0x3e4f458a	0.20241371
189	0xbb02bb0c	-0.0019947914
190	0xbd57180a	-0.05251316
191	0x3df11a9d	0.11772654
192	0xbc722862	-0.014780136
193	0x3e23a2bd	0.15980048
194	0xbe18ddf2	-0.14928415
195	0xbe2bf7ea	-0.1679379
196	0xbd0a0d32	-0.03370399
197	0x3cfc7e48	0.030821934
198	0x3df97b5c	0.12181732
199	0x3e08efb4	0.1337269
200	0x3c839a33	0.016064739
201	0xbd9bec6d	-0.07613454
202	0x3e097bc8	0.13426125
203	0xbe966295	-0.29372087
204	0x3e178e32	0.14800337
205	0xbe7c65b5	-0.24648173
206	0x3d65db61	0.05611742
207	0x3e328a1d	0.17435499
208	0xbd8bb305	-0.06821255
209	0x3d1c1515	0.038106043
210	0xbc316c22	-0.0108290035
211	0xbdf601e2	-0.12012078
212	0xbe565ea6	-0.20934543
213	0xbdc262ac	-0.094914764
214	0x3d9986ab	0.07496389
215	0xbe0fee91	-0.1405585
216	0x3dde0ccb	0.10842284
217	0x3d7741bf	0.060365435
218	0x3e55bdf1	0.20873238
219	0x3c871827	0.016491009
220	0xbed2ee3a	-0.41197377
221	0x3cd3d9ca	0.025860686
222	0xbe22be87	-0.15892993
223	0xbe534298	-0.20630872
224	0xbdf1a1c5	-0.11798433
225	0xbe07d91d	-0.13266416
226	0x3d8af706	0.06785397
227	0xbdc91786	-0.0981894
228	0x3d439cbc	0.047756895
229	0xbe35676a	-0.1771523
230	0xbe41b8f8	-0.18918216
231	0xbdbece53	-0.09316697
232	0x3bb137af	0.0054082493
233	0x3d49fd7d	0.04931401
234	0xbd21c78e	-0.03949695
235	0x3c2b27d0	0.010446504
236	0xbda074b0	-0.078347564
237	0xbe0b2ec9	-0.13592066
238	0xbe036b49	-0.12833895
239	0x3c412fa1	0.011791141
240	0xbe18a538	-0.14906776
241	0xbe23bc07	-0.15989695
242	0x3cda9a3b	0.026684871
243	0xbdb18d9b	-0.08669587
244	0x3d84ecf7	0.0649051
245	0xbdbd2a8e	-0.09236632
246	0x3e0780fc	0.13232797
247	0xbe18dfd6	-0.14929137
248	0xbd028a52	-0.031870194
249	0xbc7af433	-0.015317011
250	0xbe83855c	-0.25687683
251	0xbcb5439f	-0.02212697
252	0x3e829ed5	0.25511804
253	0x3e55078e	0.20803663
254	0x3d9d4166	0.076784894
255	0xbe0f3aec	-0.1398732

transform_linears.2.bias f4 [25]
0	0x3e49e110	0.19714761
1	0x3ddc5d72	0.10760011
2	0xbead20df	-0.3381414
3	0x3e2ce9d1	0.16886069
4	0x3e6dec90	0.23234773
5	0xbdc8c0fa	-0.09802432
6	0x3e435bfb	0.19078057
7	0xbe27e742	-0.16396812
8	0x3e393314	0.18085891
9	0x3eca4fa6	0.39513892
10	0x3e583bfe	0.21116635
11	0xbde38e04	-0.11111072
12	0xbe059e80	-0.13048744
13	0xbd662546	-0.05618789
14	0xbd987a41	-0.07445193
15	0x3e4be7a7	0.19912587
16	0x3ee492ad	0.44643155
17	0x3c049235	0.008091499
18	0x3e6778d7	0.2260469
19	0x3dc17560	0.09446216
20	0xbf1a619f	-0.6030521
21	0xbea7085a	-0.3262356
22	0x3ea40f82	0.32043082
23	0x3edcd2a8	0.43129468
24	0x3ead3fe0	0.33837795

sithcon_layers.0.tctct.conv.weight_g f4 [25, 1, 1, 1]
0	0x3eb572b7	0.35439083
1	0x3edcd0d0	0.4312806
2	0x3f1e3ccb	0.6181151
3	0x3d5e2d47	0.0542424
4	0x3ec01d13	0.37522182
5	0x3f189791	0.5960627
6	0x3eb57541	0.3544102
7	0x3c8c80f9	0.017151343
8	0x3e9ce238	0.3064134
9	0x3f435687	0.76303905
10	0x3e19f846	0.15036115
11	0x3f23c946	0.63978994
12	0x3ef5bb84	0.47994626
13	0x3e8171e8	0.25282216
14	0x3f05f96c	0.5233371
15	0x3f01dd35	0.5072816
16	0x3f0e8462	0.5567075
17	0x3e7c2c18	0.24626195
18	0x3dbf033d	0.093267895
19	0x3dc1aaa5	0.09456376
20	0x3f0cf2fb	0.5505826
21	0x3ec02c68	0.3753388
22	0x3df9cab2	0.12196864
23	0x3daa2379	0.08307547
24	0x3dfc47c3	0.12318375

sithcon_layers.0.tctct.conv.weight_v f4 [25, 1, 2, 23]
0	0x3e9380dd	0.28809252
1	0x3e889ed4	0.26683676
2	0x3ca56736	0.020190816
3	0x38531122	5.0322276e-05
4	0xbdd5ea5e	-0.104450926
5	0x3c19e745	0.009393518
6	0x3cd29cb9	0.025709497
7	0x3cca444c	0.02469077
8	0x3e01deb3	0.1268261
9	0x3e354441	0.17701818
10	0x3db32b9e	0.08748554
11	0xbde78a62	-0.11305691
12	0xbe18c898	-0.1492027
13	0xbe55fb00	-0.2089653
14	0xbe3b6939	-0.18301858
15	0xbe8135c2	-0.25236326
16	0x3d76e1b4	0.06027384
17	0x3bf06e36	0.007337357
18	0x3dd07206	0.10177998
19	0xbd8b60c3	-0.06805565
20	0xbc0327a2	-0.008005055
21	0x3e733aa1	0.23752834
22	0x3e199fa7	0.15002309
23	0xbe387b16	-0.18015704
24	0xbda40e03	-0.08010485
25	0xbd925370	-0.07144821
26	0x3b14f13e	0.00227268
27	0xbdb71908	-0.08940321
28	0x3e02d406	0.12776193
29	0x3e00d39a	0.1258072
30	0x3d8ca1e3	0.06866815
31	0xbd8f0435	-0.06983224
32	0xbd1d9308	-0.038470298
33	0x3d987638	0.074444234
34	0x3be1aaeb	0.00688683
35	0x3d91981b	0.0710909
36	0x3e3ba96e	0.18326351
37	0xbdbd02f9	-0.092290826
38	0xbda856db	-0.08219691
39	0xbd9bdcba	-0.076104596
40	0xbd2ab297	-0.041674223
41	0x3d9f27e4	0.077712804
42	0xbc33b980	-0.01096952
43	0xbd40f604	-0.04710962
44	0xbdc797ee	-0.09745775
45	0xbd401b42	-0.046900995
46	0x3e606d06	0.21916589
47	0x3d37f8c4	0.044914976
48	0x3e238adb	0.15970938
49	0x3d6eaac2	0.058268316
50	0x3bd3085a	0.0064402046
51	0x3c39fc02	0.011351587
52	0x3dbcffd6	0.09228484
53	0xbcf7c847	-0.030246867
54	0xbcb02782	-0.021503214
55	0x3e51539c	0.2044205
56	0x3bd693bc	0.006548373
57	0x3d80c707	0.062879615
58	0xbcfce1f2	-0.030869458
59	0xba155895	-0.00056970987
60	0xbda89523	-0.082315706
61	0xbe612d1f	-0.21989869
62	0xbdaa082b	-0.08302339
63	0xbe134f44	-0.14385706
64	0x3cb5cc1c	0.022192053
65	0xbdb57fa7	-0.088622384
66	0x3dc12def	0.09432589
67	0x3e95247a	0.29129392
68	0x3e8b72e4	0.27236092
69	0xbe096bfb	-0.13420098
70	0xbd807f21	-0.06274248
71	0x3d16c3d6	0.036807857
72	0x3e4c0248	0.19922745
73	0x3e4297ac	0.1900317
74	0x3e0c53b7	0.1370381
75	0xbd3612e9	-0.044451628
76	0x3cd5ce23	0.02609927
77	0xbe44f2a7	-0.1923319
78	0xbe4e8152	-0.2016652
79	0xbece28da	-0.40265542
80	0xbe558e98	-0.20855176
81	0xbe8cee19	-0.27525404
82	0xbed7d127	-0.42151758
83	0xbe9a4ecf	-0.3013825
84	0xbe1b8992	-0.15189198
85	0xbe778579	-0.2417201
86	0xbc9cea3a	-0.019154657
87	0x3d9eb068	0.077484906
88	0xbe2369a5	-0.15958269
89	0x3d63206d	0.055450846
90	0x3e1c5b7d	0.15269275
91	0x3e362560	0.17787695
92	0xbc9d7efe	-0.019225594
93	0x3dd07077	0.10177701
94	0x3c2bc14b	0.010483096
95	0xbd8f3771	-0.069929965
96	0xbd8c2d40	-0.06844568
97	0x3dd202da	0.1025445
98	0xbd0bad48	-0.0341008
99	0x3dfa1105	0.122102775
100	0xbdd9e85a	-0.10640021
101	0xbdd36b85	-0.10323242
102	0x3d841e6f	0.06451117
103	0xbe18acea	-0.14909711
104	0xbdf274a5	-0.118386544
105	0x3cb3806f	0.021911828
106	0x3e0f8df4	0.14018995
107	0xbd312b2d	-0.043254066
108	0xbca64594	-0.02029685
109	0x3c0735c6	0.008252567
110	0x3ce7244f	0.028215555
111	0xbdfbef18	-0.12301463
112	0x3dd119ae	0.10209976
113	0xbdc32489	-0.09528453
114	0xbea25710	-0.31707048
115	0x3e37a566	0.17934188
116	0x3ddd778d	0.10813818
117	0x3ea5bfb7	0.3237283
118	0x3e50e681	0.2040043
119	0x3e896681	0.26836017
120	0x3e9723e4	0.2951957
121	0x3dd3a63f	0.10334443
122	0x3e7fa203	0.24964146
123	0x3e179314	0.148022
124	0x3ea7b74a	0.32757026
125	0x3e1e380b	0.15451066
126	0x3d27b4a7	0.040943768
127	0x3e907984	0.2821771
128	0x3ea55c55	0.32297006
129	0x3e1304b0	0.14357257
130	0x3eb92eea	0.36168605
131	0x3ea01e8d	0.31273308
132	0x3df1388a	0.11778362
133	0x3d4b0951	0.04956943
134	0x3e2fe09c	0.17175525
135	0x3e31a31e	0.1734738
136	0x3dc6adc7	0.09701114
137	0x3e879a43	0.2648488
138	0xbf391cb3	-0.72309417
139	0xbe80eecd	-0.2518219
140	0xbe502209	-0.20325483
141	0x3de26574	0.11054507
142	0xbd4040d1	-0.046936814
143	0xbce92998	-0.028462216
144	0x3dfe2df2	0.12411107
145	0x3d9f7339	0.07785649
146	0x3b2ed72d	0.0026678548
147	0xbcc9451c	-0.024569087
148	0x3d838571	0.06421936
149	0xbdb0eaa4	-0.08638504
150	0x3dce0eb1	0.10061396
151	0x3e0361fc	0.12830347
152	0x3de726d8	0.11286706
153	0x3d55b1ce	0.05217152
154	0x3e763126	0.24042186
155	0xbceeeb4a	-0.029164929
156	0xbd08be27	-0.03338447
157	0x3c937729	0.018001156
158	0x3e3728b7	0.17886625
159	0x3e057e0e	0.13036367
160	0x3ea783a2	0.32717615
161	0xbec97f1c	-0.3935479
162	0xbe96031d	-0.2929925
163	0xbeb6bd79	-0.3569143
164	0xbe88073d	-0.26568022
165	0xbedf3d97	-0.43601677
166	0xbf0c5bc3	-0.5482752
167	0xbf08fb14	-0.53508115
168	0xbe7c350b	-0.2462961
169	0xbec6794c	-0.38764417
170	0xbeeb6f42	-0.4598332
171	0xbdabbcae	-0.08385597
172	0xbe96a7b2	-0.29424816
173	0xbd174e5d	-0.036939967
174	0x3cb8f0f3	0.022575831
175	0x3c9ee791	0.019397529
176	0x3beeefbd	0.0072917626
177	0xbd54e952	-0.051980324
178	0xbe1cc26b	-0.1530854
179	0x3ca83d22	0.020536963
180	0x3db26df0	0.08712375
181	0x3e0bd627	0.13655911
182	0xbc276747	-0.010217494
183	0x3e164346	0.146741
184	0xbe74711a	-0.2387127
185	0xbe8d4ba5	-0.27596775
186	0xbe314018	-0.17309606
187	0xbd6eee67	-0.058332827
188	0x3e0bbd2f	0.13646387
189	0xbcf0a7e1	-0.029376926
190	0x3e7a4b2b	0.24442737
191	0x3d2ca79b	0.04215203
192	0x3e35b993	0.17746572
193	0x3e05305d	0.1300673
194	0x3da0947b	0.078408204
195	0xbd448652	-0.04797966
196	0xbd0d57d5	-0.03450759
197	0xbda1dc5c	-0.07903358
198	0xbe65f8fb	-0.2245826
199	0xbdff2e65	-0.12460021
200	0xbe1753f9	-0.14778127
201	0xbdf61ea8	-0.12017566
202	0x3b8aa979	0.0042316285
203	0xbd9b09a6	-0.075702
204	0x3cfee1cb	0.031113526
205	0x3d6278dc	0.05529104
206	0xbc9d22d7	-0.019181652
207	0xbc5ec976	-0.013597837
208	0x3cf8fe96	0.030394834
209	0x3ad205e5	0.0016023485
210	0xbd54818e	-0.051881365
211	0xbe30c879	-0.17263974
212	0x3dd69387	0.10477357
213	0xbe39e5c8	-0.18154061
214	0xbd0d2671	-0.03446049
215	0xbe4e59e6	-0.20151481
216	0xbd56a52e	-0.05240362
217	0xbe0a42e5	-0.1350208
218	0xbe942ee1	-0.28942016
219	0xbeb4ba8f	-0.35298583
220	0xbec2a50a	-0.3801654
221	0xbeab3bf7	-0.33444187
222	0xbecf3fc8	-0.4047835
223	0xbe7b3f5a	-0.24535885
224	0xbe67f00d	-0.22650166
225	0xbd9994d7	-0.07499092
226	0xbd6e46f4	-0.058173135
227	0xbe25decf	-0.16198276
228	0xbe675d4f	-0.22594188
229	0xbe8d2559	-0.27567557
230	0xbd484a3c	-0.04889892
231	0x3daa7d33	0.08324661
232	0x3d2caca0	0.042156816
233	0x3c984c99	0.018591212
234	0xbd3bf6dc	-0.04588972
235	0xbd7041f4	-0.058656648
236	0xbdaac663	-0.083386205
237	0xbcea617c	-0.028610937
238	0x3d462b5c	0.048381194
239	0x3e075eb3	0.13219719
240	0xbdf19c80	-0.11797428
241	0x3ce0ba26	0.027432512
242	0xbd86a68b	-0.06574734
243	0x3da8a279	0.08234114
244	0xbe16af56	-0.14715323
245	0x3e0bb86d	0.13644572
246	0xbdbd985f	-0.09257578
247	0xbccf27e5	-0.025287578
248	0x3dfcb029	0.123382874
249	0xbdd3538b	-0.10318669
250	0x3d5febec	0.054668352
251	0xbdd43089	-0.1036082
252	0xbbae3ee9	-0.005317558
253	0x3df2dee4	0.11858919
254	0x3e3663d8	0.17811525
255	0x3e94263d	0.28935423

sithcon_layers.0.batch_norm.weight f4 [25]
0	0x3f8a38fd	1.0798641
1	0x3f8b67fa	1.0891106
2	0x3f70f649	0.941258
3	0x3f5e2c6f	0.8678655
4	0x3f533ed0	0.8251772
5	0x3f70eea9	0.94114166
6	0x3f5c08a1	0.85950667
7	0x3f68b596	0.9090208
8	0x3f5f4581	0.8721543
9	0x3f7e10c0	0.9924431
10	0x3f55d2ec	0.83524966
11	0x3f6e5483	0.93097705
12	0x3f8009a3	1.0002941
13	0x3f6fe65f	0.93710893
14	0x3f7b8812	0.982545
15	0x3f667bb5	0.9003251
16	0x3f6985e7	0.91219944
17	0x3f598c7d	0.84979993
18	0x3f5d3d8e	0.8642205
19	0x3f5ddc70	0.86664486
20	0x3f768f34	0.9631226
21	0x3f4a8ae8	0.79118204
22	0x3f5550bf	0.83326334
23	0x3f55ea40	0.8356056
24	0x3f5e804a	0.86914504

sithcon_layers.0.batch_norm.bias f4 [25]
0	0x3e51135b	0.2041754
1	0x3ed2e10a	0.41187316
2	0x3e16f222	0.14740804
3	0x3f0e664e	0.55624855
4	0x3ef7b928	0.4838345
5	0x3cc3a59f	0.023882685
6	0x3f12189f	0.5706882
7	0x3eb36e62	0.35045153
8	0x3ece4785	0.4028894
9	0x3cb1616c	0.0216529
10	0x3ef81ed7	0.4846103
11	0x3e9e08b3	0.30866012
12	0x3eada9c9	0.33918598
13	0x3f17a45f	0.59235185
14	0x3e3a2dc9	0.18181528
15	0x3f008c7e	0.50214374
16	0x3ed35fc3	0.41283998
17	0x3e4ab68f	0.19796203
18	0x3f0956ce	0.5364808
19	0x3f05ac81	0.52216345
20	0x3dc722d6	0.09723441
21	0x3e4b8bc3	0.19877534
22	0x3f0f1748	0.558949
23	0x3f1b0c26	0.6056541
24	0x3effd285	0.499653

sithcon_layers.0.batch_norm.running_mean f4 [25]
0	0x3eb141ed	0.3462061
1	0x3ec44796	0.38335866
2	0x3e272301	0.16321947
3	0x3d31ebd2	0.043437786
4	0x3e225187	0.15851413
5	0x3e3729ea	0.17887083
6	0x3e068348	0.13136017
7	0x3c9d5942	0.0192076
8	0x3ec969d5	0.39338556
9	0x3c282f7f	0.01026523
10	0x3da0f495	0.0785915
11	0x3e12b4f2	0.14326838
12	0x3ee5e11a	0.448983
13	0x3ec61dc0	0.38694572
14	0x3ce5fb6a	0.028073985
15	0x3e585e6b	0.21129768
16	0x3ec1651f	0.37772462
17	0x3eab41d3	0.33448657
18	0x3dd389ff	0.10329055
19	0x3df830cc	0.12118682
20	0x2811aa99	8.086109e-15
21	0x3d99d109	0.075105734
22	0x3da5def5	0.08099166
23	0x3df7acea	0.120935276
24	0x3da2504a	0.0792547

sithcon_layers.0.batch_norm.running_var f4 [25]
0	0x3be93982	0.007117451
1	0x3c0dfcfd	0.008666274
2	0x3e71cf79	0.23614301
3	0x38fa83ba	0.00011945465
4	0x3cacea57	0.021107836
5	0x3e65eb93	0.22453146
6	0x3c3a065e	0.011354057
7	0x37d5a92f	2.5470361e-05
8	0x3c52317f	0.012829184
9	0x3b323358	0.0027191248
10	0x39db15e8	0.00041787256
11	0x3d1b693b	0.037942152
12	0x3c820bd5	0.015874783
13	0x3c6b81cf	0.0143742105
14	0x3c8e5525	0.017374584
15	0x3cc55ce0	0.024092138
16	0x3d47ef61	0.048812274
17	0x3bcc0489	0.0062261266
18	0x3a229813	0.00062024704
19	0x3a5566a6	0.0008140601
20	0x1384eb29	3.355337e-27
21	0x3b44b9d8	0.0030017998
22	0x3a07e9cd	0.00051846803
23	0x3ab42fd1	0.001374716
24	0x39eb3adb	0.00044866544

sithcon_layers.1.tctct.conv.weight_g f4 [25, 1, 1, 1]
0	0x3f1ceb90	0.6129694
1	0x3efa825e	0.48927587
2	0x3f0548a2	0.52063954
3	0x3f081672	0.5315925
4	0x3ec2a535	0.38016668
5	0x3f0caf59	0.5495506
6	0x3f029eb2	0.510234
7	0x3f13080a	0.5743414
8	0x3e9b2a0b	0.30305514
9	0x3f11410c	0.5673988
10	0x3f3f1b9f	0.7465152
11	0x3ef0ab07	0.47005484
12	0x3f0894e4	0.5335219
13	0x3f11b23a	0.5691258
14	0x3f6beee7	0.9216141
15	0x3f3aad5a	0.72920763
16	0x3eb821f3	0.359634
17	0x3f5925cc	0.848233
18	0x3f0a2d03	0.5397493
19	0x3f26da03	0.6517641
20	0x3f341354	0.7034199
21	0x3ee57daa	0.44822437
22	0x3f125101	0.5715485
23	0x3f2dffa6	0.67968214
24	0x3f26c272	0.6514045

sithcon_layers.1.tctct.conv.weight_v f4 [25, 1, 25, 23]
0	0xbdec633e	-0.115423664
1	0xbde6d07e	-0.112702355
2	0xbdbe6dad	-0.09298263
3	0xbde91013	-0.11380019
4	0xbe14003e	-0.14453217
5	0xbe1c98c3	-0.15292649
6	0xbdd85dbe	-0.10564755
7	0xbdb9022d	-0.09033618
8	0xbda2e172	-0.079531565
9	0xbe0c2016	-0.13684115
10	0xbdc52e0f	-0.096279256
11	0xbe33f8a7	-0.17575322
12	0xbe2c5bd4	-0.16831905
13	0xbddec047	-0.10876518
14	0xbdf550fb	-0.119783364
15	0xbd87dd5c	-0.06634018
16	0xbdd6eb1f	-0.104940645
17	0xbd6e823c	-0.05822967
18	0xbc9ad9d2	-0.018902693
19	0xbd3a1482	-0.045429714
20	0xbd895944	-0.06706479
21	0xbd97204e	-0.073792085
22	0xbd65f32f	-0.05614012
23	0xbda7dd1d	-0.08196471
24	0xbddb832d	-0.10718379
25	0xbdc8e994	-0.098101765
26	0xbdead3a5	-0.11466149
27	0xbd8ecf9e	-0.069731936
28	0xbdf2426e	-0.11829077
29	0xbdc60803	-0.09669497
30	0xbdbf830a	-0.093511656
31	0xbd9ede4a	-0.07757242
32	0xbdccc8e0	-0.09999251
33	0xbdac2d02	-0.08407022
34	0xbd27fe6d	-0.041014124
35	0xbbb09a19	-0.0053894636
36	0x3d40bb84	0.04705383
37	0x3d660a95	0.056162436
38	0x3c95e38b	0.018296978
39	0x3dbf76f9	0.09348864
40	0x3d18732e	0.03721922
41	0x3d84ebcd	0.06490288
42	0x3da7f839	0.082016416
43	0x3d55b515	0.052174646
44	0x3da0e8d5	0.07856909
45	0x3da4bb69	0.08043558
46	0xbd6287bf	-0.05530524
47	0xbd959466	-0.073036954
48	0xbdfd8310	-0.12378514
49	0xbe04e2e0	-0.12977171
50	0xbdcea65f	-0.100903265
51	0xbdd53a82	-0.1041155
52	0xbddab5a7	-0.10679179
53	0xbe3845f8	-0.17995441
54	0xbe3e3b8d	-0.18577404
55	0xbe5e3e19	-0.21703376
56	0xbe2ba8ac	-0.16763562
57	0xbe01bc07	-0.12669383
58	0xbe13708c	-0.14398402
59	0xbdb4cfb9	-0.088286825
60	0xbd8d8e1d	-0.069118716
61	0xbd56c833	-0.05243702
62	0xbc39541e	-0.011311559
63	0xbcca6bb9	-0.02470957
64	0x3c0c99b0	0.008581564
65	0x3d619b0b	0.0550795
66	0x3d7f0f98	0.06227073
67	0x3e0b0ac5	0.13578327
68	0x3ddce902	0.1078663
69	0xbdb10369	-0.086432286
70	0xbddb36b9	-0.10703797
71	0xbdb4a75d	-0.088209845
72	0xbdd9f140	-0.10641718
73	0xbe297dcd	-0.16551895
74	0xbdd891e1	-0.10574699
75	0xbe3f2397	-0.1866592
76	0xbe3e75b8	-0.18599594
77	0xbe15a533	-0.146138
78	0xbdb81acf	-0.08989488
79	0xbd46e15f	-0.048554774
80	0x3ba7f1b6	0.0051252497
81	0x3d307ebc	0.043089613
82	0x3d3028a9	0.043007527
83	0x3cbaa3ef	0.022783248
84	0x3d655a05	0.055994052
85	0x3d9497f9	0.07255549
86	0x3db35919	0.087572284
87	0x3ca766dd	0.020434791
88	0x3d6ec5c5	0.058294076
89	0xbb9f24c6	-0.0048566787
90	0xbce111d4	-0.027474321
91	0xbc3753e7	-0.0111894375
92	0xbd2fb865	-0.04290046
93	0x3c965d41	0.018355014
94	0xbd78814a	-0.060670175
95	0xbd59eb7d	-0.053203095
96	0xbc8a956c	-0.016916953
97	0xbd842343	-0.06452038
98	0xbbf6d37e	-0.007532536
99	0x3b0db9fa	0.0021625743
100	0xbc00195c	-0.007818546
101	0xbd450919	-0.04810438
102	0xbbe22226	-0.0069010435
103	0xbc44a6ba	-0.012002641
104	0xbd92ae35	-0.071621336
105	0xbd904377	-0.07044118
106	0xbc36bdef	-0.011153682
107	0xbd9061c7	-0.070498995
108	0x3ac4d7df	0.0015017948
109	0xbd70cd48	-0.05878952
110	0xbcb71f65	-0.022353837
111	0xbba1315a	-0.0049192132
112	0xbb6d294a	-0.003618794
113	0x3d3d4d50	0.04621631
114	0x3c19e352	0.009392576
115	0xbe1d074b	-0.15334813
116	0xbe186d24	-0.14885384
117	0xbe1e0c9c	-0.15434498
118	0xbdb494eb	-0.08817466
119	0xbd956a11	-0.07295621
120	0xbe120a5a	-0.14261761
121	0xbdead0a7	-0.114655785
122	0xbdf2ddbc	-0.11858699
123	0xbe1e2541	-0.15443899
124	0xbe3243c4	-0.17408663
125	0xbddee75b	-0.10883971
126	0xbd658657	-0.05603632
127	0xbdc45118	-0.0958578
128	0xbdbfbb50	-0.09361899
129	0xbd6d4b3a	-0.05793307
130	0xbc440f13	-0.011966485
131	0xbced15c4	-0.028941043
132	0xbbaed27e	-0.005335151
133	0xbb23f554	-0.0025018053
134	0x3bb2b686	0.0054538874
135	0x3c90a2d5	0.01765577
136	0x3bef9607	0.007311586
137	0x3d3b5977	0.045739617
138	0xbda54380	-0.08069515
139	0xbdcd3d11	-0.10021413
140	0xbd87c6a6	-0.06629686
141	0xbd154d91	-0.036450926
142	0xbd71e743	-0.05905844
143	0xbddb63b3	-0.107123755
144	0xbd8f9580	-0.07010937
145	0xbe1ac1fb	-0.1511306
146	0xbe22f6ee	-0.15914509
147	0xbdc4a472	-0.09601678
148	0xbda2cff5	-0.07949821
149	0xbde8cc96	-0.11367147
150	0xbe3c62d4	-0.18397075
151	0xbe13d509	-0.14436735
152	0xbe18f8fd	-0.14938731
153	0xbd81f430	-0.06345403
154	0xbd21a2de	-0.039461963
155	0xbcd7892a	-0.026310522
156	0xbd28addf	-0.04118144
157	0xbd25338a	-0.040332355
158	0xbceb25d0	-0.028704554
159	0x3c6eb9d0	0.014570668
160	0xbcac1a5f	-0.021008668
161	0xbd89d681	-0.067303665
162	0xbd9abd32	-0.075556174
163	0x3b915bb7	0.004435982
164	0x3d73bef1	0.059508268
165	0x3d4facdd	0.050701965
166	0x3d217cc3	0.039425623
167	0xbc93481d	-0.017978722
168	0xbbe3b169	-0.006948639
169	0xbd27ae83	-0.04093791
170	0xbd5b92f8	-0.053606957
171	0xbd21381b	-0.039360147
172	0x3ce9bec3	0.028533345
173	0x3d6ba955	0.057534534
174	0x3d8c0733	0.06837311
175	0x3d85c1b4	0.065310866
176	0x3dc33eb0	0.09533441
177	0x3d2adce9	0.041714583
178	0x3d975ab3	0.073903464
179	0x3da42014	0.08013931
180	0x3dcc8596	0.09986417
181	0x3dc6288c	0.096757025
182	0x3e218132	0.1577194
183	0x3e1a26eb	0.15053909
184	0x3cb6df87	0.022323383
185	0xbc374121	-0.011184962
186	0xbc4b47bd	-0.01240724
187	0x3cedf199	0.029045867
188	0x3d617f39	0.05505297
189	0x3d4651b4	0.048417762
190	0xbc3afbab	-0.011412541
191	0xbcdc890e	-0.026920822
192	0xbdc691e6	-0.09695797
193	0xbe7aeda3	-0.24504714
194	0xbea76807	-0.32696554
195	0xbe9a8ce6	-0.30185622
196	0xbea43e3d	-0.32078734
197	0xbe4044d9	-0.18776263
198	0xbdf49ce8	-0.1194399
199	0xbd728fac	-0.059219047
200	0xbc5aa71b	-0.013345505
201	0xbaee1405	-0.0018163925
202	0x3dd7e970	0.105425715
203	0x3e006f56	0.12542471
204	0x3e222ed6	0.15838179
205	0x3e3c84f0	0.18410087
206	0x3e7db3ec	0.24775666
207	0xbe00306c	-0.12518471
208	0xbe3c9c14	-0.18418914
209	0xbe18f1ed	-0.14936037
210	0xbe151e53	-0.14562349
211	0xbe0196d9	-0.126552
212	0xbdcbae73	-0.09945383
213	0xbde6952e	-0.112589225
214	0xbe107c5b	-0.14109938
215	0xbe228c15	-0.1587375
216	0xbdd8b19b	-0.105807506
217	0xbdd05183	-0.10171797
218	0xbe24620b	-0.16053025
219	0xbe26461f	-0.16237687
220	0xbe3004a3	-0.17189269
221	0xbe0d6cd4	-0.13811046
222	0xbdedd6bd	-0.11613224
223	0xbd1cb7a6	-0.03826108
224	0xbd7eacf8	-0.062176675
225	0xbdc1db81	-0.09465695
226	0xbdb255e3	-0.08707788
227	0xbd499ca2	-0.049221642
228	0xbdcd2880	-0.100174904
229	0xbdc3a45f	-0.09552836
230	0xbda6c83d	-0.08143661
231	0xbde5ca82	-0.11220266
232	0xbda4eff3	-0.08053579
233	0xbdec9eab	-0.11553701
234	0xbe116737	-0.1419953
235	0xbe2a51df	-0.16632794
236	0xbe2ac804	-0.16677862
237	0xbde823ca	-0.11334951
238	0xbe3500a9	-0.17676033
239	0xbe3f8591	-0.18703295
240	0xbe387e70	-0.18016982
241	0xbdb4227c	-0.0879564
242	0xbdce9ca6	-0.10088472
243	0xbd72a879	-0.0592427
244	0xbbf3579a	-0.0074262144
245	0x3d18dcbd	0.037319887
246	0x3c05e5a9	0.008172431
247	0x3b7976d3	0.003806521
248	0x3d9ce73b	0.07661291
249	0x3d628338	0.05530092
250	0x3cdb68af	0.026783315
251	0x3dbc263e	0.091869816
252	0x3d32ef38	0.043685168
253	0xbd9b4307	-0.07581144
254	0xbe063b4a	-0.13108554
255	0xbda3f3a8	-0.08005458

sithcon_layers.1.batch_norm.weight f4 [25]
0	0x3f70b8f2	0.94032204
1	0x3f8bc5e4	1.0919766
2	0x3f5ef3de	0.8709086
3	0x3f5f6a90	0.87271976
4	0x3f5e4730	0.86827374
5	0x3f709e3f	0.93991464
6	0x3f806ee2	1.0033839
7	0x3f5c0e75	0.8595956
8	0x3f4674f2	0.77522194
9	0x3f9e42c8	1.236413
10	0x3f7087d2	0.93957245
11	0x3f884c72	1.0648329
12	0x3f7158cc	0.9427612
13	0x3f671ce0	0.90278435
14	0x3f8d94ba	1.1061013
15	0x3f8ea72e	1.1144769
16	0x3f558b2b	0.8341548
17	0x3f778db4	0.96700597
18	0x3f7ef078	0.99585676
19	0x3f74d723	0.9564077
20	0x3f85bc6c	1.0448127
21	0x3f5bb8cd	0.8582886
22	0x3f796cbf	0.9743156
23	0x3f8217a5	1.0163466
24	0x3f745ce1	0.9545422

sithcon_layers.1.batch_norm.bias f4 [25]
0	0x3da95e7c	0.082699746
1	0x3ec14400	0.37747192
2	0xbdbfa85c	-0.09358284
3	0xbdde4703	-0.10853388
4	0x3e30e09e	0.17273185
5	0x3d40259b	0.046910863
6	0xbd3c7d81	-0.046018127
7	0xbd71d849	-0.059044156
8	0x3da6b31f	0.081396334
9	0x3c0a6831	0.008447693
10	0xbdd04ed2	-0.10171284
11	0x39384432	0.00017573012
12	0xbd83f5d2	-0.06443371
13	0x3e92484e	0.2857079
14	0xbd1969c4	-0.03745438
15	0x3e06ac7b	0.13151734
16	0x3d877e18	0.06615847
17	0x3cf064b0	0.029344887
18	0x3e11a102	0.14221576
19	0x3e3393f4	0.17536908
20	0x3cb3a0b4	0.021927215
21	0x39c25464	0.0003706544
22	0x3e15ebd2	0.1464074
23	0xbd3ea3bf	-0.04654288
24	0x3e1f9925	0.15585764

sithcon_layers.1.batch_norm.running_mean f4 [25]
0	0x3f07bd9c	0.53023696
1	0x3e804c40	0.25058174
2	0x3f21a229	0.6313806
3	0x3e5e4cb8	0.21708953
4	0x3f3c5fd2	0.7358371
5	0x3e87a0f4	0.26489985
6	0x3d59b364	0.053149596
7	0x3efebe31	0.4975448
8	0x3d34353f	0.043996092
9	0x3ea76f52	0.32702118
10	0x3e86ecf7	0.26352665
11	0x3bba1962	0.0056792954
12	0x3bf574b8	0.0074907206
13	0x3f1b35a6	0.60628736
14	0x3f3fc860	0.74915123
15	0x3e894a4d	0.268145
16	0x3e84ef16	0.25963658
17	0x3f03bd4b	0.51460713
18	0x3de2d1db	0.11075183
19	0x3e158494	0.14601356
20	0x3ed64837	0.4185197
21	0x3f9af38f	1.2105578
22	0x3f5fa491	0.87360483
23	0x3e864e94	0.26231825
24	0x3ed0bfd3	0.4077135

sithcon_layers.1.batch_norm.running_var f4 [25]
0	0x3f6422de	0.89115703
1	0x3bd315e9	0.006441821
2	0x3d87be05	0.0662804
3	0x3d554390	0.052066386
4	0x3f6da440	0.9282875
5	0x3e51b1a7	0.20477925
6	0x3b12c0f1	0.0022392834
7	0x3f0b6ce2	0.54463017
8	0x3abb795a	0.0014303133
9	0x3c078554	0.008271534
10	0x3df4cbaf	0.11952912
11	0x3a25d453	0.0006325889
12	0x39e9340f	0.0004448001
13	0x3f4cbe9a	0.79978335
14	0x3d8d7113	0.06906333
15	0x3d1e27a2	0.038612016
16	0x3e635f68	0.22204363
17	0x3d813585	0.06309036
18	0x3b7eae2d	0.003886114
19	0x3dd10a1b	0.102070056
20	0x3e98a2e5	0.2981178
21	0x3f191fc5	0.598141
22	0x3e071c96	0.13194498
23	0x3d663a85	0.056208152
24	0x3edc81cd	0.4306778

sithcon_layers.2.tctct.conv.weight_g f4 [25, 1, 1, 1]
0	0x3e2d16d2	0.16903237
1	0x3e08b8bb	0.13351719
2	0x3d85188e	0.06498824
3	0x3f5a4a80	0.8526993
4	0x3f86cf65	1.0532042
5	0x3f27dfad	0.6557568
6	0x3f707bbd	0.9393881
7	0x3e9d0447	0.30667326
8	0x3d5bce0a	0.05366329
9	0x3f57d00e	0.8430184
10	0x3f8c2ec8	1.0951777
11	0x3f56481a	0.8370377
12	0x3f3244aa	0.69636023
13	0x3d0c3c4b	0.034237187
14	0x3f0cfd2e	0.5507382
15	0x3eda454c	0.42630994
16	0x3f81ea5e	1.0149648
17	0x3ecb46c6	0.39702433
18	0x3f19d8a9	0.6009622
19	0x3f7027d2	0.9381076
20	0x3f3ed93d	0.7455023
21	0x3f4353e0	0.7629986
22	0x3f2cf6b2	0.6756393
23	0x3f8690e9	1.0512973
24	0x3f04b1e8	0.51833963

sithcon_layers.2.tctct.conv.weight_v f4 [25, 1, 25, 23]
0	0x3d39cd5c	0.04536186
1	0x3bf9d211	0.007623919
2	0x3b1efdd6	0.0024260185
3	0xbd4843a2	-0.048892625
4	0xbd371d9b	-0.04470597
5	0xbd5d2941	-0.05399442
6	0xbc92f08e	-0.017936971
7	0xbc033916	-0.008009216
8	0xbd43bf7f	-0.047790047
9	0xbd2ee7e9	-0.042701636
10	0xbd7ec02a	-0.06219498
11	0x3c229cd7	0.009925089
12	0xbd4f47f0	-0.050605714
13	0xbd2cb6fd	-0.0421667
14	0xbd8de330	-0.06928098
15	0xbc8757f2	-0.016521428
16	0xbcc37bf0	-0.023862809
17	0xbdeb6ea8	-0.114957154
18	0xbe08459b	-0.13307802
19	0xbdcc4f6f	-0.09976088
20	0xbe254eec	-0.16143388
21	0xbe177191	-0.14789416
22	0xbe372581	-0.178854
23	0x3ddfb052	0.10922302
24	0x3da8dca4	0.08245209
25	0x3d9c99b2	0.076465026
26	0x3d636b4d	0.055522252
27	0x3d42b751	0.047538105
28	0x3d4a0f42	0.049330957
29	0x3d13316f	0.035935815
30	0x3da528db	0.08064433
31	0x3d92c329	0.0716613
32	0x3cd3a196	0.025833886
33	0x3d6b626d	0.057466913
34	0x3c874502	0.016512398
35	0x3d50372b	0.050833862
36	0x3c67a615	0.014138718
37	0x3d05a85b	0.03263126
38	0xbd076141	-0.033051733
39	0xbd808abd	-0.06276462
40	0xbc86e0f8	-0.016464695
41	0xbcab27a7	-0.020892931
42	0xbd1c2699	-0.038122747
43	0xbc89678c	-0.016773008
44	0xbd717bbc	-0.058955893
45	0xbd108611	-0.035284106
46	0x3db51f84	0.08843902
47	0x3d785bc8	0.060634404
48	0x3db7dbdf	0.08977484
49	0x3db1b8ee	0.08677851
50	0x3d4b67ba	0.04965947
51	0x3d7672bb	0.06016801
52	0x3d61c5ff	0.055120464
53	0x3b80c5ef	0.0039298455
54	0x3cfca7b7	0.030841691
55	0xbab61585	-0.0013891911
56	0xbd40d887	-0.047081497
57	0xbd9b2444	-0.075752765
58	0xbdff337a	-0.1246099
59	0xbdfe0a8b	-0.12404355
60	0xbdf691a4	-0.120394975
61	0xbdc38e66	-0.09548645
62	0xbd5aa02e	-0.053375416
63	0xbdd5569a	-0.104169086
64	0xbdc3998b	-0.0955077
65	0xbded13ff	-0.115760796
66	0xbdb0b175	-0.08627597
67	0xbd668a79	-0.0562844
68	0xbd990b50	-0.07472861
69	0xbd8a1f6e	-0.06744276
70	0xbd9bff37	-0.07617038
71	0xbdafb86b	-0.08580097
72	0xbe1dd5ec	-0.15413636
73	0xbe019440	-0.12654209
74	0xbe15e62c	-0.14638585
75	0xbe10de66	-0.14147338
76	0xbda17f74	-0.07885638
77	0xbd90f754	-0.07078424
78	0xbde21f08	-0.11041075
79	0xbdf2fa39	-0.118641324
80	0xbe06f3f8	-0.13179004
81	0xbe024503	-0.12721638
82	0xbe2c3e8e	-0.16820738
83	0xbe396452	-0.18104675
84	0xbe3fae3e	-0.18718812
85	0xbe04de6e	-0.12975475
86	0xbe29bc88	-0.16575825
87	0xbdfe949a	-0.12430687
88	0xbe12a6d2	-0.1432145
89	0xbe1f6d5d	-0.15569063
90	0xbd98f05f	-0.07467722
91	0xbe0030c7	-0.12518607
92	0xbd30ecce	-0.043194585
93	0xbcd94938	-0.026524171
94	0xbdc317a9	-0.09525997
95	0xbde5b91e	-0.11216949
96	0xbdaae65e	-0.0834472
97	0xbe146daa	-0.14494959
98	0xbde6d3df	-0.1127088
99	0xbdcfa09a	-0.10138054
100	0xbcc59107	-0.024117006
101	0x3c5a4e4b	0.013324331
102	0x3db685d7	0.08912247
103	0x3dad41fc	0.08459851
104	0x3d88ce33	0.066799544
105	0x3dd67dae	0.1047319
106	0x3de4f1a5	0.111789025
107	0x3d9d66ed	0.07685647
108	0x3d9f1fc5	0.077697314
109	0x3b11119b	0.0022135738
110	0x3b607142	0.0034247194
111	0x3cd0b78d	0.025478149
112	0xbcc04d60	-0.023474395
113	0xbb3725ed	-0.002794619
114	0x3da4f4b9	0.0805449
115	0x3d73de55	0.059538204
116	0x3dd5f9a4	0.10448006
117	0x3cf7c0a3	0.030243224
118	0xbc5b15c3	-0.013371888
119	0xbcfbd40d	-0.030740762
120	0xbd02b345	-0.031909246
121	0xbd71f70b	-0.05907349
122	0xbdc84368	-0.09778482
123	0xbe06ab1a	-0.13151208
124	0xbdfa41b4	-0.12219563
125	0xbe077f2e	-0.13232109
126	0xbe467136	-0.19379124
127	0xbe2c10a6	-0.16803226
128	0xbe255ef7	-0.16149507
129	0xbe15d32a	-0.14631334
130	0xbe46c843	-0.19412331
131	0xbe1922c8	-0.14954674
132	0xbe211401	-0.15730287
133	0xbe30d45a	-0.17268506
134	0xbdbd9872	-0.09257592
135	0xbe1d7062	-0.15374902
136	0xbdeba490	-0.11505997
137	0xbdbab0fc	-0.09115788
138	0x3cbefae8	0.023313
139	0xbca9a9fe	-0.020710941
140	0xbd5191cd	-0.051164437
141	0xbd75342c	-0.059864208
142	0xbd31760d	-0.043325473
143	0xbdbbbc74	-0.09166804
144	0xbde11ec1	-0.10992194
145	0xbd987a69	-0.07445223
146	0xbde8842c	-0.11353335
147	0xbd6d50e9	-0.05793849
148	0xbdcdf4b2	-0.100564376
149	0xbde22329	-0.110418625
150	0xbddfefd1	-0.10934413
151	0xbd9eca78	-0.077534616
152	0xbdb8b51b	-0.09018918
153	0xbe0168a3	-0.12637572
154	0xbe1cec70	-0.15324569
155	0xbdebcfd2	-0.11514248
156	0xbd8d6087	-0.06903177
157	0xbd805112	-0.06265463
158	0xbd8ded83	-0.069300674
159	0xbdac92aa	-0.084264114
160	0xbd88574a	-0.06657274
161	0xbd910373	-0.07080736
162	0xbd9a5d72	-0.075373545
163	0xbdd10b27	-0.10207205
164	0xbdf80ec9	-0.12112195
165	0xbdaf258c	-0.085520834
166	0xbda67e60	-0.08129573
167	0xbd836e6b	-0.06417545
168	0xbdcde246	-0.10052924
169	0xbc92309b	-0.017845443
170	0xbd45a092	-0.048248835
171	0x3d3a1885	0.04543354
172	0x3d115a98	0.035486788
173	0x3cd6d52c	0.026224695
174	0x3da8c431	0.082405455
175	0x3d00018d	0.03125148
176	0x3d0ae0e9	0.033905897
177	0xbba60f58	-0.005067747
178	0x3b4017fc	0.002931117
179	0x3c9ea67e	0.019366499
180	0x3ceb6df4	0.028738953
181	0xbcf8e3e9	-0.030382114
182	0xbc83d9ef	-0.01609513
183	0xba5ddbba	-0.0008463223
184	0x3e78dff7	0.24304186
185	0x3e9945c7	0.29936048
186	0xbe7bc1cb	-0.24585645
187	0x3ed1489b	0.40875706
188	0xbeb24c9b	-0.3482407
189	0xbeb3df2f	-0.35131213
190	0xbe84c7ae	-0.25933594
191	0xbe0a60da	-0.13513508
192	0xbdc4407f	-0.09582614
193	0xbdb44a40	-0.088032246
194	0xbdab2730	-0.08357084
195	0xbe0c0b3e	-0.13676164
196	0xbda5b460	-0.080910444
197	0xbde62f4e	-0.112394914
198	0xbdaa13c7	-0.083045535
199	0xbda4590e	-0.08024798
200	0xbdb173b6	-0.08664648
201	0xbdd2ea33	-0.10298576
202	0xbdf223f6	-0.11823265
203	0xbe078a49	-0.13236345
204	0xbdf49674	-0.11942759
205	0xbe29dfb5	-0.16589244
206	0xbe8078ac	-0.25092065
207	0x38824545	6.2117855e-05
208	0xbd157ab7	-0.036493983
209	0xbd9b9047	-0.07595878
210	0xbe0a8328	-0.13526595
211	0xbe1ac621	-0.15114643
212	0xbe318acd	-0.17338105
213	0xbdca4cae	-0.09877907
214	0xbe181ae7	-0.14854012
215	0xbddab6f8	-0.1067943
216	0xbdbee6ec	-0.093213886
217	0xbd844115	-0.06457726
218	0xbcc357b7	-0.023845537
219	0x3d4715f9	0.04860494
220	0x3d3cbf2f	0.046080764
221	0x3c35c97b	0.0110954
222	0x3d12247d	0.03567933
223	0x3cbca93d	0.023029918
224	0xbb62d82b	-0.003461371
225	0xbd318f0e	-0.04334932
226	0xbc0cc7cd	-0.008592558
227	0x3bf8fd54	0.0075985584
228	0xbc6021c2	-0.0136799235
229	0xbcb2e7a1	-0.021838965
230	0xbd959cf9	-0.07305331
231	0xbd7dfc45	-0.06200816
232	0xbdbfeb7b	-0.09371086
233	0xbe2ca1df	-0.16858624
234	0xbded4b57	-0.115866356
235	0xbe44040e	-0.19142172
236	0xbe2da311	-0.16956736
237	0xbe58dd6a	-0.21178213
238	0xbe78e2d2	-0.24305275
239	0xbe3f7638	-0.1869744
240	0xbe501e4a	-0.20324054
241	0xbe46b5d9	-0.19405307
242	0xbe3990f9	-0.18121709
243	0xbe35eab2	-0.1776531
244	0xbe282565	-0.16420515
245	0xbe3ec63a	-0.18630305
246	0xbe404670	-0.1877687
247	0xbe4c43e7	-0.19947778
248	0xbe47adb8	-0.19499862
249	0xbe5de351	-0.21668746
250	0xbe46ce57	-0.1941465
251	0xbe21d906	-0.15805444
252	0xbe25395d	-0.16135164
253	0x3d4a834d	0.049441624
254	0x3c15e82a	0.0091495905
255	0x3d165cdc	0.03670965

sithcon_layers.2.batch_norm.weight f4 [25]
0	0x3f6f4bf2	0.9347526
1	0x3f1af2e3	0.60526866
2	0x3f833dff	1.0253295
3	0x3f6415d3	0.890958
4	0x3f55705d	0.8337458
5	0x3f3020e8	0.6880021
6	0x3f600e1a	0.8752152
7	0x3f4fda54	0.8119252
8	0x3f838cff	1.0277404
9	0x3f07ef1c	0.53099227
10	0x3f0482a9	0.5176187
11	0x3f2c05b1	0.67196184
12	0x3f802faf	1.0014552
13	0x3f8a193c	1.0788951
14	0x3f52a247	0.82278866
15	0x3f6d4041	0.9267617
16	0x3f683fca	0.90722334
17	0x3f684ceb	0.9074237
18	0x3f821116	1.0161464
19	0x3f5b3ad0	0.85636616
20	0x3f338cd2	0.7013675
21	0x3f48a8a7	0.78382343
22	0x3f61da07	0.8822331
23	0x3f5b6d06	0.8571323
24	0x3f288ebf	0.65842813
